…
          "support": 332.0
        }
      },
      "zero_day_detection_rate": 0.18373493975903615,
      "avg_confidence": "0.7599221",
      "support_samples": 110,
      "query_samples": 332,
      "ttt_adaptation_steps": 10,
      "optimal_threshold": 0.9712249636650085,
      "roc_auc": 0.9207058501664311,
      "roc_curve": {
        "fpr": [
          … "tpr": [
          … "thresholds": [
          … "adapted_model": "TransductiveLearner(\n  (feature_extractors): OptimizedMultiScaleTCN(\n    (tcn_branch1): OptimizedTCN(\n      (network): Sequential(\n        (0): TemporalBlock(\n          (conv1): Conv1d(23, 64, kernel_size=(3,), stride=(1,), padding=(2,))\n          (chomp1): Chomp1d()\n          (relu1): ReLU()\n          (dropout1): Dropout(p=0.0, inplace=False)\n          (conv2): Conv1d(64, 64, kernel_size=(3,), stride=(1,), padding=(2,))\n          (chomp2): Chomp1d()\n          (relu2): ReLU()\n          (dropout2): Dropout(p=0.0, inplace=False)\n          (net): Sequential(\n            (0): Conv1d(23, 64, kernel_size=(3,), stride=(1,), padding=(2,))\n            (1): Chomp1d()\n            (2): ReLU()\n            (3): Dropout(p=0.0, inplace=False)\n            (4): Conv1d(64, 64, kernel_size=(3,), stride=(1,), padding=(2,))\n            (5): Chomp1d()\n            (6): ReLU()\n            (7): Dropout(p=0.0, inplace=False)\n          )\n          (downsample): Conv1d(23, 64, kernel_size=(1,), stride=(1,))\n          (relu): ReLU()\n        )\n        (1): TemporalBlock(\n          (conv1): Conv1d(64, 64, kernel_size=(3,), stride=(1,), padding=(4,), dilation=(2,))\n          (chomp1): Chomp1d()\n          (relu1): ReLU()\n          (dropout1): Dropout(p=0.0, inplace=False)\n          (conv2): Conv1d(64, 64, kernel_size=(3,), stride=(1,), padding=(4,), dilation=(2,))\n          (chomp2): Chomp1d()\n          (relu2): ReLU()\n          (dropout2): Dropout(p=0.0, inplace=False)\n          (net): Sequential(\n            (0): Conv1d(64, 64, kernel_size=(3,), stride=(1,), padding=(4,), dilation=(2,))\n            (1): Chomp1d()\n            (2): ReLU()\n            (3): Dropout(p=0.0, inplace=False)\n            (4): Conv1d(64, 64, kernel_size=(3,), stride=(1,), padding=(4,), dilation=(2,))\n            (5): Chomp1d()\n            (6): ReLU()\n            (7): Dropout(p=0.0, inplace=False)\n          )\n          (relu): ReLU()\n        )\n      )\n      (linear): Linear(in_features=64, out_features=64, bias=True)\n    )\n    (tcn_branch2): OptimizedTCN(\n      (network): Sequential(\n        (0): TemporalBlock(\n          (conv1): Conv1d(23, 32, kernel_size=(3,), stride=(1,), padding=(2,))\n          (chomp1): Chomp1d()\n          (relu1): ReLU()\n          (dropout1): Dropout(p=0.0, inplace=False)\n          (conv2): Conv1d(32, 32, kernel_size=(3,), stride=(1,), padding=(2,))\n          (chomp2): Chomp1d()\n          (relu2): ReLU()\n          (dropout2): Dropout(p=0.0, inplace=False)\n          (net): Sequential(\n            (0): Conv1d(23, 32, kernel_size=(3,), stride=(1,), padding=(2,))\n            (1): Chomp1d()\n            (2): ReLU()\n            (3): Dropout(p=0.0, inplace=False)\n            (4): Conv1d(32, 32, kernel_size=(3,), stride=(1,), padding=(2,))\n            (5): Chomp1d()\n            (6): ReLU()\n            (7): Dropout(p=0.0, inplace=False)\n          )\n          (downsample): Conv1d(23, 32, kernel_size=(1,), stride=(1,))\n          (relu): ReLU()\n        )\n        (1): TemporalBlock(\n          (conv1): Conv1d(32, 32, kernel_size=(3,), stride=(1,), padding=(4,), dilation=(2,))\n          (chomp1): Chomp1d()\n          (relu1): ReLU()\n          (dropout1): Dropout(p=0.0, inplace=False)\n          (conv2): Conv1d(32, 32, kernel_size=(3,), stride=(1,), padding=(4,), dilation=(2,))\n          (chomp2): Chomp1d()\n          (relu2): ReLU()\n          (dropout2): Dropout(p=0.0, inplace=False)\n          (net): Sequential(\n            (0): Conv1d(32, 32, kernel_size=(3,), stride=(1,), padding=(4,), dilation=(2,))\n            (1): Chomp1d()\n            (2): ReLU()\n            (3): Dropout(p=0.0, inplace=False)\n            (4): Conv1d(32, 32, kernel_size=(3,), stride=(1,), padding=(4,), dilation=(2,))\n            (5): Chomp1d()\n            (6): ReLU()\n            (7): Dropout(p=0.0, inplace=False)\n          )\n          (relu): ReLU()\n        )\n      )\n      (linear): Linear(in_features=32, out_features=32, bias=True)\n    )\n    (tcn_branch3): OptimizedTCN(\n      (network): Sequential(\n        (0): TemporalBlock(\n          (conv1): Conv1d(23, 128, kernel_size=(3,), stride=(1,), padding=(2,))\n          (chomp1): Chomp1d()\n          (relu1): ReLU()\n          (dropout1): Dropout(p=0.0, inplace=False)\n          (conv2): Conv1d(128, 128, kernel_size=(3,), stride=(1,), padding=(2,))\n          (chomp2): Chomp1d()\n          (relu2): ReLU()\n          (dropout2): Dropout(p=0.0, inplace=False)\n          (net): Sequential(\n            (0): Conv1d(23, 128, kernel_size=(3,), stride=(1,), padding=(2,))\n            (1): Chomp1d()\n            (2): ReLU()\n            (3): Dropout(p=0.0, inplace=False)\n            (4): Conv1d(128, 128, kernel_size=(3,), stride=(1,), padding=(2,))\n            (5): Chomp1d()\n            (6): ReLU()\n            (7): Dropout(p=0.0, inplace=False)\n          )\n          (downsample): Conv1d(23, 128, kernel_size=(1,), stride=(1,))\n          (relu): ReLU()\n        )\n        (1): TemporalBlock(\n          (conv1): Conv1d(128, 128, kernel_size=(3,), stride=(1,), padding=(4,), dilation=(2,))\n          (chomp1): Chomp1d()\n          (relu1): ReLU()\n          (dropout1): Dropout(p=0.0, inplace=False)\n          (conv2): Conv1d(128, 128, kernel_size=(3,), stride=(1,), padding=(4,), dilation=(2,))\n          (chomp2): Chomp1d()\n          (relu2): ReLU()\n          (dropout2): Dropout(p=0.0, inplace=False)\n          (net): Sequential(\n            (0): Conv1d(128, 128, kernel_size=(3,), stride=(1,), padding=(4,), dilation=(2,))\n            (1): Chomp1d()\n            (2): ReLU()\n            (3): Dropout(p=0.0, inplace=False)\n            (4): Conv1d(128, 128, kernel_size=(3,), stride=(1,), padding=(4,), dilation=(2,))\n            (5): Chomp1d()\n            (6): ReLU()\n            (7): Dropout(p=0.0, inplace=False)\n          )\n          (relu): ReLU()\n        )\n      )\n      (linear): Linear(in_features=128, out_features=128, bias=True)\n    )\n  )\n  (feature_projection): Sequential(\n    (0): Linear(in_features=224, out_features=64, bias=True)\n    (1): ReLU()\n    (2): Dropout(p=0.0, inplace=False)\n  )\n  (classifier): Sequential(\n    (0): Linear(in_features=64, out_features=64, bias=True)\n    (1): BatchNorm1d(64, eps=1e-05, momentum=0.1, affine=True, track_running_stats=True)\n    (2): ReLU()\n    (3): Dropout(p=0.0, inplace=False)\n    (4): Linear(in_features=64, out_features=32, bias=True)\n    (5): BatchNorm1d(32, eps=1e-05, momentum=0.1, affine=True, track_running_stats=True)\n    (6): ReLU()\n    (7): Dropout(p=0.0, inplace=False)\n    (8): Linear(in_features=32, out_features=16, bias=True)\n    (9): BatchNorm1d(16, eps=1e-05, momentum=0.1, affine=True, track_running_stats=True)\n    (10): ReLU()\n    (11): Dropout(p=0.0, inplace=False)\n    (12): Linear(in_features=16, out_features=2, bias=True)\n  )\n  (self_attention): MultiheadAttention(\n    (out_proj): NonDynamicallyQuantizableLinear(in_features=64, out_features=64, bias=True)\n  )\n  (layer_norm): LayerNorm((64,), eps=1e-05, elementwise_affine=True)\n)"
    },
    "base_model_kfold": {
      "accuracy_mean": 0.8946491946491948,
      "accuracy_std": 0.027638119420657522,
      "precision_mean": 0.8946491946491948,
      "precision_std": 0.027638119420657522,
      "recall_mean": 0.8946491946491948,
      "recall_std": 0.027638119420657522,
      "macro_f1_mean": 0.8465702918211813,
      "macro_f1_std": 0.04715200924349137,
…
